_________________________________________________________________
Layer (type)                 Output Shape              Param #   
=================================================================
embedding_4 (Embedding)      (None, 80, 300)           30000000  
_________________________________________________________________
dropout_7 (Dropout)          (None, 80, 300)           0         
_________________________________________________________________
conv1d_4 (Conv1D)            (None, 78, 64)            57664     
_________________________________________________________________
max_pooling1d_4 (MaxPooling1 (None, 19, 64)            0         
_________________________________________________________________
bidirectional_4 (Bidirection (None, 256)               148224    
_________________________________________________________________
dropout_8 (Dropout)          (None, 256)               0         
_________________________________________________________________
dense_4 (Dense)              (None, 1)                 257       
=================================================================
Total params: 30,206,145
Trainable params: 206,145
Non-trainable params: 30,000,000
_________________________________________________________________
Train on 777758 samples, validate on 86418 samples
Epoch 1/50
 - 303s - loss: 0.5365 - acc: 0.7297 - f1_m: 0.7199 - precision_m: 0.7473 - recall_m: 0.6999 - val_loss: 0.4979 - val_acc: 0.7577 - val_f1_m: 0.7433 - val_precision_m: 0.7917 - val_recall_m: 0.7020
…
